Model: "model"
__________________________________________________________________________________________________
Layer (type)                    Output Shape         Param #     Connected to                     
==================================================================================================
input_1 (InputLayer)            [(None, 416, 416, 3) 0                                            
__________________________________________________________________________________________________
stem_conv_pad (ZeroPadding2D)   (None, 417, 417, 3)  0           input_1[0][0]                    
__________________________________________________________________________________________________
stem_conv (Conv2D)              (None, 208, 208, 32) 864         stem_conv_pad[0][0]              
__________________________________________________________________________________________________
stem_bn (BatchNormalization)    (None, 208, 208, 32) 128         stem_conv[0][0]                  
__________________________________________________________________________________________________
stem_activation (Activation)    (None, 208, 208, 32) 0           stem_bn[0][0]                    
__________________________________________________________________________________________________
block1a_dwconv (DepthwiseConv2D (None, 208, 208, 32) 288         stem_activation[0][0]            
__________________________________________________________________________________________________
block1a_bn (BatchNormalization) (None, 208, 208, 32) 128         block1a_dwconv[0][0]             
__________________________________________________________________________________________________
block1a_activation (Activation) (None, 208, 208, 32) 0           block1a_bn[0][0]                 
__________________________________________________________________________________________________
block1a_se_squeeze (GlobalAvera (None, 32)           0           block1a_activation[0][0]         
__________________________________________________________________________________________________
block1a_se_reshape (Reshape)    (None, 1, 1, 32)     0           block1a_se_squeeze[0][0]         
__________________________________________________________________________________________________
block1a_se_reduce (Conv2D)      (None, 1, 1, 8)      264         block1a_se_reshape[0][0]         
__________________________________________________________________________________________________
block1a_se_expand (Conv2D)      (None, 1, 1, 32)     288         block1a_se_reduce[0][0]          
__________________________________________________________________________________________________
block1a_se_excite (Multiply)    (None, 208, 208, 32) 0           block1a_activation[0][0]         
                                                                 block1a_se_expand[0][0]          
__________________________________________________________________________________________________
block1a_project_conv (Conv2D)   (None, 208, 208, 16) 512         block1a_se_excite[0][0]          
__________________________________________________________________________________________________
block1a_project_bn (BatchNormal (None, 208, 208, 16) 64          block1a_project_conv[0][0]       
__________________________________________________________________________________________________
block1b_dwconv (DepthwiseConv2D (None, 208, 208, 16) 144         block1a_project_bn[0][0]         
__________________________________________________________________________________________________
block1b_bn (BatchNormalization) (None, 208, 208, 16) 64          block1b_dwconv[0][0]             
__________________________________________________________________________________________________
block1b_activation (Activation) (None, 208, 208, 16) 0           block1b_bn[0][0]                 
__________________________________________________________________________________________________
block1b_se_squeeze (GlobalAvera (None, 16)           0           block1b_activation[0][0]         
__________________________________________________________________________________________________
block1b_se_reshape (Reshape)    (None, 1, 1, 16)     0           block1b_se_squeeze[0][0]         
__________________________________________________________________________________________________
block1b_se_reduce (Conv2D)      (None, 1, 1, 4)      68          block1b_se_reshape[0][0]         
__________________________________________________________________________________________________
block1b_se_expand (Conv2D)      (None, 1, 1, 16)     80          block1b_se_reduce[0][0]          
__________________________________________________________________________________________________
block1b_se_excite (Multiply)    (None, 208, 208, 16) 0           block1b_activation[0][0]         
                                                                 block1b_se_expand[0][0]          
__________________________________________________________________________________________________
block1b_project_conv (Conv2D)   (None, 208, 208, 16) 256         block1b_se_excite[0][0]          
__________________________________________________________________________________________________
block1b_project_bn (BatchNormal (None, 208, 208, 16) 64          block1b_project_conv[0][0]       
__________________________________________________________________________________________________
block1b_drop (Dropout)          (None, 208, 208, 16) 0           block1b_project_bn[0][0]         
__________________________________________________________________________________________________
block1b_add (Add)               (None, 208, 208, 16) 0           block1b_drop[0][0]               
                                                                 block1a_project_bn[0][0]         
__________________________________________________________________________________________________
block2a_expand_conv (Conv2D)    (None, 208, 208, 96) 1536        block1b_add[0][0]                
__________________________________________________________________________________________________
block2a_expand_bn (BatchNormali (None, 208, 208, 96) 384         block2a_expand_conv[0][0]        
__________________________________________________________________________________________________
block2a_expand_activation (Acti (None, 208, 208, 96) 0           block2a_expand_bn[0][0]          
__________________________________________________________________________________________________
block2a_dwconv_pad (ZeroPadding (None, 209, 209, 96) 0           block2a_expand_activation[0][0]  
__________________________________________________________________________________________________
block2a_dwconv (DepthwiseConv2D (None, 104, 104, 96) 864         block2a_dwconv_pad[0][0]         
__________________________________________________________________________________________________
block2a_bn (BatchNormalization) (None, 104, 104, 96) 384         block2a_dwconv[0][0]             
__________________________________________________________________________________________________
block2a_activation (Activation) (None, 104, 104, 96) 0           block2a_bn[0][0]                 
__________________________________________________________________________________________________
block2a_se_squeeze (GlobalAvera (None, 96)           0           block2a_activation[0][0]         
__________________________________________________________________________________________________
block2a_se_reshape (Reshape)    (None, 1, 1, 96)     0           block2a_se_squeeze[0][0]         
__________________________________________________________________________________________________
block2a_se_reduce (Conv2D)      (None, 1, 1, 4)      388         block2a_se_reshape[0][0]         
__________________________________________________________________________________________________
block2a_se_expand (Conv2D)      (None, 1, 1, 96)     480         block2a_se_reduce[0][0]          
__________________________________________________________________________________________________
block2a_se_excite (Multiply)    (None, 104, 104, 96) 0           block2a_activation[0][0]         
                                                                 block2a_se_expand[0][0]          
__________________________________________________________________________________________________
block2a_project_conv (Conv2D)   (None, 104, 104, 24) 2304        block2a_se_excite[0][0]          
__________________________________________________________________________________________________
block2a_project_bn (BatchNormal (None, 104, 104, 24) 96          block2a_project_conv[0][0]       
__________________________________________________________________________________________________
block2b_expand_conv (Conv2D)    (None, 104, 104, 144 3456        block2a_project_bn[0][0]         
__________________________________________________________________________________________________
block2b_expand_bn (BatchNormali (None, 104, 104, 144 576         block2b_expand_conv[0][0]        
…
block2b_dwconv (DepthwiseConv2D (None, 104, 104, 144 1296        block2b_expand_activation[0][0]  
__________________________________________________________________________________________________
block2b_bn (BatchNormalization) (None, 104, 104, 144 576         block2b_dwconv[0][0]             
__________________________________________________________________________________________________
block2b_activation (Activation) (None, 104, 104, 144 0           block2b_bn[0][0]                 
__________________________________________________________________________________________________
block2b_se_squeeze (GlobalAvera (None, 144)          0           block2b_activation[0][0]         
__________________________________________________________________________________________________
block2b_se_reshape (Reshape)    (None, 1, 1, 144)    0           block2b_se_squeeze[0][0]         
__________________________________________________________________________________________________
block2b_se_reduce (Conv2D)      (None, 1, 1, 6)      870         block2b_se_reshape[0][0]         
__________________________________________________________________________________________________
block2b_se_expand (Conv2D)      (None, 1, 1, 144)    1008        block2b_se_reduce[0][0]          
__________________________________________________________________________________________________
block2b_se_excite (Multiply)    (None, 104, 104, 144 0           block2b_activation[0][0]         
                                                                 block2b_se_expand[0][0]          
__________________________________________________________________________________________________
block2b_project_conv (Conv2D)   (None, 104, 104, 24) 3456        block2b_se_excite[0][0]          
__________________________________________________________________________________________________
block2b_project_bn (BatchNormal (None, 104, 104, 24) 96          block2b_project_conv[0][0]       
__________________________________________________________________________________________________
block2b_drop (Dropout)          (None, 104, 104, 24) 0           block2b_project_bn[0][0]         
__________________________________________________________________________________________________
block2b_add (Add)               (None, 104, 104, 24) 0           block2b_drop[0][0]               
                                                                 block2a_project_bn[0][0]         
__________________________________________________________________________________________________
block2c_expand_conv (Conv2D)    (None, 104, 104, 144 3456        block2b_add[0][0]                
__________________________________________________________________________________________________
…
block3a_expand_bn (BatchNormali (None, 104, 104, 144 576         block3a_expand_conv[0][0]        
__________________________________________________________________________________________________
block3a_expand_activation (Acti (None, 104, 104, 144 0           block3a_expand_bn[0][0]          
__________________________________________________________________________________________________
block3a_dwconv_pad (ZeroPadding (None, 107, 107, 144 0           block3a_expand_activation[0][0]  
__________________________________________________________________________________________________
block3a_dwconv (DepthwiseConv2D (None, 52, 52, 144)  3600        block3a_dwconv_pad[0][0]         
__________________________________________________________________________________________________
block3a_bn (BatchNormalization) (None, 52, 52, 144)  576         block3a_dwconv[0][0]             
__________________________________________________________________________________________________
block3a_activation (Activation) (None, 52, 52, 144)  0           block3a_bn[0][0]                 
__________________________________________________________________________________________________
block3a_se_squeeze (GlobalAvera (None, 144)          0           block3a_activation[0][0]         
__________________________________________________________________________________________________
block3a_se_reshape (Reshape)    (None, 1, 1, 144)    0           block3a_se_squeeze[0][0]         
__________________________________________________________________________________________________
block3a_se_reduce (Conv2D)      (None, 1, 1, 6)      870         block3a_se_reshape[0][0]         
__________________________________________________________________________________________________
block3a_se_expand (Conv2D)      (None, 1, 1, 144)    1008        block3a_se_reduce[0][0]          
__________________________________________________________________________________________________
block3a_se_excite (Multiply)    (None, 52, 52, 144)  0           block3a_activation[0][0]         
                                                                 block3a_se_expand[0][0]          
__________________________________________________________________________________________________
block3a_project_conv (Conv2D)   (None, 52, 52, 48)   6912        block3a_se_excite[0][0]          
__________________________________________________________________________________________________
block3a_project_bn (BatchNormal (None, 52, 52, 48)   192         block3a_project_conv[0][0]       
__________________________________________________________________________________________________
block3b_expand_conv (Conv2D)    (None, 52, 52, 288)  13824       block3a_project_bn[0][0]         
__________________________________________________________________________________________________
block3b_expand_bn (BatchNormali (None, 52, 52, 288)  1152        block3b_expand_conv[0][0]        
__________________________________________________________________________________________________
block3b_expand_activation (Acti (None, 52, 52, 288)  0           block3b_expand_bn[0][0]          
__________________________________________________________________________________________________
block3b_dwconv (DepthwiseConv2D (None, 52, 52, 288)  7200        block3b_expand_activation[0][0]  
__________________________________________________________________________________________________
block3b_bn (BatchNormalization) (None, 52, 52, 288)  1152        block3b_dwconv[0][0]             
__________________________________________________________________________________________________
block3b_activation (Activation) (None, 52, 52, 288)  0           block3b_bn[0][0]                 
__________________________________________________________________________________________________
block3b_se_squeeze (GlobalAvera (None, 288)          0           block3b_activation[0][0]         
__________________________________________________________________________________________________
block3b_se_reshape (Reshape)    (None, 1, 1, 288)    0           block3b_se_squeeze[0][0]         
__________________________________________________________________________________________________
block3b_se_reduce (Conv2D)      (None, 1, 1, 12)     3468        block3b_se_reshape[0][0]         
__________________________________________________________________________________________________
block3b_se_expand (Conv2D)      (None, 1, 1, 288)    3744        block3b_se_reduce[0][0]          
__________________________________________________________________________________________________
block3b_se_excite (Multiply)    (None, 52, 52, 288)  0           block3b_activation[0][0]         
                                                                 block3b_se_expand[0][0]          
__________________________________________________________________________________________________
block3b_project_conv (Conv2D)   (None, 52, 52, 48)   13824       block3b_se_excite[0][0]          
__________________________________________________________________________________________________
block3b_project_bn (BatchNormal (None, 52, 52, 48)   192         block3b_project_conv[0][0]       
__________________________________________________________________________________________________
block3b_drop (Dropout)          (None, 52, 52, 48)   0           block3b_project_bn[0][0]         
__________________________________________________________________________________________________
block3b_add (Add)               (None, 52, 52, 48)   0           block3b_drop[0][0]               
                                                                 block3a_project_bn[0][0]         
__________________________________________________________________________________________________
block3c_expand_conv (Conv2D)    (None, 52, 52, 288)  13824       block3b_add[0][0]                
__________________________________________________________________________________________________
block3c_expand_bn (BatchNormali (None, 52, 52, 288)  1152        block3c_expand_conv[0][0]        
__________________________________________________________________________________________________
block3c_expand_activation (Acti (None, 52, 52, 288)  0           block3c_expand_bn[0][0]          
__________________________________________________________________________________________________
block3c_dwconv (DepthwiseConv2D (None, 52, 52, 288)  7200        block3c_expand_activation[0][0]  
__________________________________________________________________________________________________
block3c_bn (BatchNormalization) (None, 52, 52, 288)  1152        block3c_dwconv[0][0]             
__________________________________________________________________________________________________
block3c_activation (Activation) (None, 52, 52, 288)  0           block3c_bn[0][0]                 
__________________________________________________________________________________________________
block3c_se_squeeze (GlobalAvera (None, 288)          0           block3c_activation[0][0]         
__________________________________________________________________________________________________
block3c_se_reshape (Reshape)    (None, 1, 1, 288)    0           block3c_se_squeeze[0][0]         
__________________________________________________________________________________________________
block3c_se_reduce (Conv2D)      (None, 1, 1, 12)     3468        block3c_se_reshape[0][0]         
__________________________________________________________________________________________________
block3c_se_expand (Conv2D)      (None, 1, 1, 288)    3744        block3c_se_reduce[0][0]          
__________________________________________________________________________________________________
block3c_se_excite (Multiply)    (None, 52, 52, 288)  0           block3c_activation[0][0]         
                                                                 block3c_se_expand[0][0]          
__________________________________________________________________________________________________
block3c_project_conv (Conv2D)   (None, 52, 52, 48)   13824       block3c_se_excite[0][0]          
__________________________________________________________________________________________________
block3c_project_bn (BatchNormal (None, 52, 52, 48)   192         block3c_project_conv[0][0]       
__________________________________________________________________________________________________
block3c_drop (Dropout)          (None, 52, 52, 48)   0           block3c_project_bn[0][0]         
__________________________________________________________________________________________________
block3c_add (Add)               (None, 52, 52, 48)   0           block3c_drop[0][0]               
                                                                 block3b_add[0][0]                
__________________________________________________________________________________________________
block4a_expand_conv (Conv2D)    (None, 52, 52, 288)  13824       block3c_add[0][0]                
__________________________________________________________________________________________________
block4a_expand_bn (BatchNormali (None, 52, 52, 288)  1152        block4a_expand_conv[0][0]        
__________________________________________________________________________________________________
block4a_expand_activation (Acti (None, 52, 52, 288)  0           block4a_expand_bn[0][0]          
__________________________________________________________________________________________________
block4a_dwconv_pad (ZeroPadding (None, 53, 53, 288)  0           block4a_expand_activation[0][0]  
__________________________________________________________________________________________________
block4a_dwconv (DepthwiseConv2D (None, 26, 26, 288)  2592        block4a_dwconv_pad[0][0]         
__________________________________________________________________________________________________
block4a_bn (BatchNormalization) (None, 26, 26, 288)  1152        block4a_dwconv[0][0]             
__________________________________________________________________________________________________
block4a_activation (Activation) (None, 26, 26, 288)  0           block4a_bn[0][0]                 
__________________________________________________________________________________________________
block4a_se_squeeze (GlobalAvera (None, 288)          0           block4a_activation[0][0]         
__________________________________________________________________________________________________
block4a_se_reshape (Reshape)    (None, 1, 1, 288)    0           block4a_se_squeeze[0][0]         
__________________________________________________________________________________________________
block4a_se_reduce (Conv2D)      (None, 1, 1, 12)     3468        block4a_se_reshape[0][0]         
__________________________________________________________________________________________________
block4a_se_expand (Conv2D)      (None, 1, 1, 288)    3744        block4a_se_reduce[0][0]          
__________________________________________________________________________________________________
block4a_se_excite (Multiply)    (None, 26, 26, 288)  0           block4a_activation[0][0]         
                                                                 block4a_se_expand[0][0]          
__________________________________________________________________________________________________
block4a_project_conv (Conv2D)   (None, 26, 26, 88)   25344       block4a_se_excite[0][0]          
__________________________________________________________________________________________________
block4a_project_bn (BatchNormal (None, 26, 26, 88)   352         block4a_project_conv[0][0]       
__________________________________________________________________________________________________
block4b_expand_conv (Conv2D)    (None, 26, 26, 528)  46464       block4a_project_bn[0][0]         
__________________________________________________________________________________________________
block4b_expand_bn (BatchNormali (None, 26, 26, 528)  2112        block4b_expand_conv[0][0]        
__________________________________________________________________________________________________
block4b_expand_activation (Acti (None, 26, 26, 528)  0           block4b_expand_bn[0][0]          
__________________________________________________________________________________________________
block4b_dwconv (DepthwiseConv2D (None, 26, 26, 528)  4752        block4b_expand_activation[0][0]  
__________________________________________________________________________________________________
block4b_bn (BatchNormalization) (None, 26, 26, 528)  2112        block4b_dwconv[0][0]             
__________________________________________________________________________________________________
block4b_activation (Activation) (None, 26, 26, 528)  0           block4b_bn[0][0]                 
__________________________________________________________________________________________________
block4b_se_squeeze (GlobalAvera (None, 528)          0           block4b_activation[0][0]         
__________________________________________________________________________________________________
block4b_se_reshape (Reshape)    (None, 1, 1, 528)    0           block4b_se_squeeze[0][0]         
__________________________________________________________________________________________________
block4b_se_reduce (Conv2D)      (None, 1, 1, 22)     11638       block4b_se_reshape[0][0]         
__________________________________________________________________________________________________
block4b_se_expand (Conv2D)      (None, 1, 1, 528)    12144       block4b_se_reduce[0][0]          
__________________________________________________________________________________________________
block4b_se_excite (Multiply)    (None, 26, 26, 528)  0           block4b_activation[0][0]         
                                                                 block4b_se_expand[0][0]          
__________________________________________________________________________________________________
block4b_project_conv (Conv2D)   (None, 26, 26, 88)   46464       block4b_se_excite[0][0]          
__________________________________________________________________________________________________
block4b_project_bn (BatchNormal (None, 26, 26, 88)   352         block4b_project_conv[0][0]       
__________________________________________________________________________________________________
block4b_drop (Dropout)          (None, 26, 26, 88)   0           block4b_project_bn[0][0]         
__________________________________________________________________________________________________
block4b_add (Add)               (None, 26, 26, 88)   0           block4b_drop[0][0]               
                                                                 block4a_project_bn[0][0]         
__________________________________________________________________________________________________
block4c_expand_conv (Conv2D)    (None, 26, 26, 528)  46464       block4b_add[0][0]                
__________________________________________________________________________________________________
block4c_expand_bn (BatchNormali (None, 26, 26, 528)  2112        block4c_expand_conv[0][0]        
__________________________________________________________________________________________________
block4c_expand_activation (Acti (None, 26, 26, 528)  0           block4c_expand_bn[0][0]          
__________________________________________________________________________________________________
block4c_dwconv (DepthwiseConv2D (None, 26, 26, 528)  4752        block4c_expand_activation[0][0]  
__________________________________________________________________________________________________
block4c_bn (BatchNormalization) (None, 26, 26, 528)  2112        block4c_dwconv[0][0]             
__________________________________________________________________________________________________
block4c_activation (Activation) (None, 26, 26, 528)  0           block4c_bn[0][0]                 
__________________________________________________________________________________________________
block4c_se_squeeze (GlobalAvera (None, 528)          0           block4c_activation[0][0]         
__________________________________________________________________________________________________
block4c_se_reshape (Reshape)    (None, 1, 1, 528)    0           block4c_se_squeeze[0][0]         
__________________________________________________________________________________________________
block4c_se_reduce (Conv2D)      (None, 1, 1, 22)     11638       block4c_se_reshape[0][0]         
__________________________________________________________________________________________________
block4c_se_expand (Conv2D)      (None, 1, 1, 528)    12144       block4c_se_reduce[0][0]          
__________________________________________________________________________________________________
block4c_se_excite (Multiply)    (None, 26, 26, 528)  0           block4c_activation[0][0]         
                                                                 block4c_se_expand[0][0]          
__________________________________________________________________________________________________
block4c_project_conv (Conv2D)   (None, 26, 26, 88)   46464       block4c_se_excite[0][0]          
__________________________________________________________________________________________________
block4c_project_bn (BatchNormal (None, 26, 26, 88)   352         block4c_project_conv[0][0]       
__________________________________________________________________________________________________
block4c_drop (Dropout)          (None, 26, 26, 88)   0           block4c_project_bn[0][0]         
__________________________________________________________________________________________________
block4c_add (Add)               (None, 26, 26, 88)   0           block4c_drop[0][0]               
                                                                 block4b_add[0][0]                
__________________________________________________________________________________________________
block4d_expand_conv (Conv2D)    (None, 26, 26, 528)  46464       block4c_add[0][0]                
__________________________________________________________________________________________________
block4d_expand_bn (BatchNormali (None, 26, 26, 528)  2112        block4d_expand_conv[0][0]        
__________________________________________________________________________________________________
block4d_expand_activation (Acti (None, 26, 26, 528)  0           block4d_expand_bn[0][0]          
__________________________________________________________________________________________________
block4d_dwconv (DepthwiseConv2D (None, 26, 26, 528)  4752        block4d_expand_activation[0][0]  
__________________________________________________________________________________________________
block4d_bn (BatchNormalization) (None, 26, 26, 528)  2112        block4d_dwconv[0][0]             
__________________________________________________________________________________________________
block4d_activation (Activation) (None, 26, 26, 528)  0           block4d_bn[0][0]                 
__________________________________________________________________________________________________
block4d_se_squeeze (GlobalAvera (None, 528)          0           block4d_activation[0][0]         
__________________________________________________________________________________________________
block4d_se_reshape (Reshape)    (None, 1, 1, 528)    0           block4d_se_squeeze[0][0]         
__________________________________________________________________________________________________
block4d_se_reduce (Conv2D)      (None, 1, 1, 22)     11638       block4d_se_reshape[0][0]         
__________________________________________________________________________________________________
block4d_se_expand (Conv2D)      (None, 1, 1, 528)    12144       block4d_se_reduce[0][0]          
__________________________________________________________________________________________________
block4d_se_excite (Multiply)    (None, 26, 26, 528)  0           block4d_activation[0][0]         
                                                                 block4d_se_expand[0][0]          
__________________________________________________________________________________________________
block4d_project_conv (Conv2D)   (None, 26, 26, 88)   46464       block4d_se_excite[0][0]          
__________________________________________________________________________________________________
block4d_project_bn (BatchNormal (None, 26, 26, 88)   352         block4d_project_conv[0][0]       
__________________________________________________________________________________________________
block4d_drop (Dropout)          (None, 26, 26, 88)   0           block4d_project_bn[0][0]         
__________________________________________________________________________________________________
block4d_add (Add)               (None, 26, 26, 88)   0           block4d_drop[0][0]               
                                                                 block4c_add[0][0]                
__________________________________________________________________________________________________
block5a_expand_conv (Conv2D)    (None, 26, 26, 528)  46464       block4d_add[0][0]                
__________________________________________________________________________________________________
block5a_expand_bn (BatchNormali (None, 26, 26, 528)  2112        block5a_expand_conv[0][0]        
__________________________________________________________________________________________________
block5a_expand_activation (Acti (None, 26, 26, 528)  0           block5a_expand_bn[0][0]          
__________________________________________________________________________________________________
block5a_dwconv (DepthwiseConv2D (None, 26, 26, 528)  13200       block5a_expand_activation[0][0]  
__________________________________________________________________________________________________
block5a_bn (BatchNormalization) (None, 26, 26, 528)  2112        block5a_dwconv[0][0]             
__________________________________________________________________________________________________
block5a_activation (Activation) (None, 26, 26, 528)  0           block5a_bn[0][0]                 
__________________________________________________________________________________________________
block5a_se_squeeze (GlobalAvera (None, 528)          0           block5a_activation[0][0]         
__________________________________________________________________________________________________
block5a_se_reshape (Reshape)    (None, 1, 1, 528)    0           block5a_se_squeeze[0][0]         
__________________________________________________________________________________________________
block5a_se_reduce (Conv2D)      (None, 1, 1, 22)     11638       block5a_se_reshape[0][0]         
__________________________________________________________________________________________________
block5a_se_expand (Conv2D)      (None, 1, 1, 528)    12144       block5a_se_reduce[0][0]          
__________________________________________________________________________________________________
block5a_se_excite (Multiply)    (None, 26, 26, 528)  0           block5a_activation[0][0]         
                                                                 block5a_se_expand[0][0]          
__________________________________________________________________________________________________
block5a_project_conv (Conv2D)   (None, 26, 26, 120)  63360       block5a_se_excite[0][0]          
__________________________________________________________________________________________________
block5a_project_bn (BatchNormal (None, 26, 26, 120)  480         block5a_project_conv[0][0]       
__________________________________________________________________________________________________
block5b_expand_conv (Conv2D)    (None, 26, 26, 720)  86400       block5a_project_bn[0][0]         
__________________________________________________________________________________________________
block5b_expand_bn (BatchNormali (None, 26, 26, 720)  2880        block5b_expand_conv[0][0]        
__________________________________________________________________________________________________
block5b_expand_activation (Acti (None, 26, 26, 720)  0           block5b_expand_bn[0][0]          
__________________________________________________________________________________________________
block5b_dwconv (DepthwiseConv2D (None, 26, 26, 720)  18000       block5b_expand_activation[0][0]  
__________________________________________________________________________________________________
block5b_bn (BatchNormalization) (None, 26, 26, 720)  2880        block5b_dwconv[0][0]             
__________________________________________________________________________________________________
block5b_activation (Activation) (None, 26, 26, 720)  0           block5b_bn[0][0]                 
__________________________________________________________________________________________________
block5b_se_squeeze (GlobalAvera (None, 720)          0           block5b_activation[0][0]         
__________________________________________________________________________________________________
block5b_se_reshape (Reshape)    (None, 1, 1, 720)    0           block5b_se_squeeze[0][0]         
__________________________________________________________________________________________________
block5b_se_reduce (Conv2D)      (None, 1, 1, 30)     21630       block5b_se_reshape[0][0]         
__________________________________________________________________________________________________
block5b_se_expand (Conv2D)      (None, 1, 1, 720)    22320       block5b_se_reduce[0][0]          
__________________________________________________________________________________________________
block5b_se_excite (Multiply)    (None, 26, 26, 720)  0           block5b_activation[0][0]         
                                                                 block5b_se_expand[0][0]          
__________________________________________________________________________________________________
block5b_project_conv (Conv2D)   (None, 26, 26, 120)  86400       block5b_se_excite[0][0]          
__________________________________________________________________________________________________
block5b_project_bn (BatchNormal (None, 26, 26, 120)  480         block5b_project_conv[0][0]       
__________________________________________________________________________________________________
block5b_drop (Dropout)          (None, 26, 26, 120)  0           block5b_project_bn[0][0]         
__________________________________________________________________________________________________
block5b_add (Add)               (None, 26, 26, 120)  0           block5b_drop[0][0]               
                                                                 block5a_project_bn[0][0]         
__________________________________________________________________________________________________
block5c_expand_conv (Conv2D)    (None, 26, 26, 720)  86400       block5b_add[0][0]                
__________________________________________________________________________________________________
block5c_expand_bn (BatchNormali (None, 26, 26, 720)  2880        block5c_expand_conv[0][0]        
__________________________________________________________________________________________________
block5c_expand_activation (Acti (None, 26, 26, 720)  0           block5c_expand_bn[0][0]          
__________________________________________________________________________________________________
block5c_dwconv (DepthwiseConv2D (None, 26, 26, 720)  18000       block5c_expand_activation[0][0]  
__________________________________________________________________________________________________
block5c_bn (BatchNormalization) (None, 26, 26, 720)  2880        block5c_dwconv[0][0]             
__________________________________________________________________________________________________
block5c_activation (Activation) (None, 26, 26, 720)  0           block5c_bn[0][0]                 
__________________________________________________________________________________________________
block5c_se_squeeze (GlobalAvera (None, 720)          0           block5c_activation[0][0]         
__________________________________________________________________________________________________
block5c_se_reshape (Reshape)    (None, 1, 1, 720)    0           block5c_se_squeeze[0][0]         
__________________________________________________________________________________________________
block5c_se_reduce (Conv2D)      (None, 1, 1, 30)     21630       block5c_se_reshape[0][0]         
__________________________________________________________________________________________________
block5c_se_expand (Conv2D)      (None, 1, 1, 720)    22320       block5c_se_reduce[0][0]          
__________________________________________________________________________________________________
block5c_se_excite (Multiply)    (None, 26, 26, 720)  0           block5c_activation[0][0]         
                                                                 block5c_se_expand[0][0]          
__________________________________________________________________________________________________
block5c_project_conv (Conv2D)   (None, 26, 26, 120)  86400       block5c_se_excite[0][0]          
__________________________________________________________________________________________________
block5c_project_bn (BatchNormal (None, 26, 26, 120)  480         block5c_project_conv[0][0]       
__________________________________________________________________________________________________
block5c_drop (Dropout)          (None, 26, 26, 120)  0           block5c_project_bn[0][0]         
__________________________________________________________________________________________________
block5c_add (Add)               (None, 26, 26, 120)  0           block5c_drop[0][0]               
                                                                 block5b_add[0][0]                
__________________________________________________________________________________________________
block5d_expand_conv (Conv2D)    (None, 26, 26, 720)  86400       block5c_add[0][0]                
__________________________________________________________________________________________________
block5d_expand_bn (BatchNormali (None, 26, 26, 720)  2880        block5d_expand_conv[0][0]        
__________________________________________________________________________________________________
block5d_expand_activation (Acti (None, 26, 26, 720)  0           block5d_expand_bn[0][0]          
__________________________________________________________________________________________________
block5d_dwconv (DepthwiseConv2D (None, 26, 26, 720)  18000       block5d_expand_activation[0][0]  
__________________________________________________________________________________________________
block5d_bn (BatchNormalization) (None, 26, 26, 720)  2880        block5d_dwconv[0][0]             
__________________________________________________________________________________________________
block5d_activation (Activation) (None, 26, 26, 720)  0           block5d_bn[0][0]                 
__________________________________________________________________________________________________
block5d_se_squeeze (GlobalAvera (None, 720)          0           block5d_activation[0][0]         
__________________________________________________________________________________________________
block5d_se_reshape (Reshape)    (None, 1, 1, 720)    0           block5d_se_squeeze[0][0]         
__________________________________________________________________________________________________
block5d_se_reduce (Conv2D)      (None, 1, 1, 30)     21630       block5d_se_reshape[0][0]         
__________________________________________________________________________________________________
block5d_se_expand (Conv2D)      (None, 1, 1, 720)    22320       block5d_se_reduce[0][0]          
__________________________________________________________________________________________________
block5d_se_excite (Multiply)    (None, 26, 26, 720)  0           block5d_activation[0][0]         
                                                                 block5d_se_expand[0][0]          
__________________________________________________________________________________________________
block5d_project_conv (Conv2D)   (None, 26, 26, 120)  86400       block5d_se_excite[0][0]          
__________________________________________________________________________________________________
block5d_project_bn (BatchNormal (None, 26, 26, 120)  480         block5d_project_conv[0][0]       
__________________________________________________________________________________________________
block5d_drop (Dropout)          (None, 26, 26, 120)  0           block5d_project_bn[0][0]         
__________________________________________________________________________________________________
block5d_add (Add)               (None, 26, 26, 120)  0           block5d_drop[0][0]               
                                                                 block5c_add[0][0]                
__________________________________________________________________________________________________
block6a_expand_conv (Conv2D)    (None, 26, 26, 720)  86400       block5d_add[0][0]                
__________________________________________________________________________________________________
block6a_expand_bn (BatchNormali (None, 26, 26, 720)  2880        block6a_expand_conv[0][0]        
__________________________________________________________________________________________________
block6a_expand_activation (Acti (None, 26, 26, 720)  0           block6a_expand_bn[0][0]          
__________________________________________________________________________________________________
block6a_dwconv_pad (ZeroPadding (None, 29, 29, 720)  0           block6a_expand_activation[0][0]  
__________________________________________________________________________________________________
block6a_dwconv (DepthwiseConv2D (None, 13, 13, 720)  18000       block6a_dwconv_pad[0][0]         
__________________________________________________________________________________________________
block6a_bn (BatchNormalization) (None, 13, 13, 720)  2880        block6a_dwconv[0][0]             
__________________________________________________________________________________________________
block6a_activation (Activation) (None, 13, 13, 720)  0           block6a_bn[0][0]                 
__________________________________________________________________________________________________
block6a_se_squeeze (GlobalAvera (None, 720)          0           block6a_activation[0][0]         
__________________________________________________________________________________________________
block6a_se_reshape (Reshape)    (None, 1, 1, 720)    0           block6a_se_squeeze[0][0]         
__________________________________________________________________________________________________
block6a_se_reduce (Conv2D)      (None, 1, 1, 30)     21630       block6a_se_reshape[0][0]         
__________________________________________________________________________________________________
block6a_se_expand (Conv2D)      (None, 1, 1, 720)    22320       block6a_se_reduce[0][0]          
__________________________________________________________________________________________________
block6a_se_excite (Multiply)    (None, 13, 13, 720)  0           block6a_activation[0][0]         
                                                                 block6a_se_expand[0][0]          
__________________________________________________________________________________________________
block6a_project_conv (Conv2D)   (None, 13, 13, 208)  149760      block6a_se_excite[0][0]          
__________________________________________________________________________________________________
block6a_project_bn (BatchNormal (None, 13, 13, 208)  832         block6a_project_conv[0][0]       
__________________________________________________________________________________________________
block6b_expand_conv (Conv2D)    (None, 13, 13, 1248) 259584      block6a_project_bn[0][0]         
__________________________________________________________________________________________________
block6b_expand_bn (BatchNormali (None, 13, 13, 1248) 4992        block6b_expand_conv[0][0]        
__________________________________________________________________________________________________
block6b_expand_activation (Acti (None, 13, 13, 1248) 0           block6b_expand_bn[0][0]          
__________________________________________________________________________________________________
block6b_dwconv (DepthwiseConv2D (None, 13, 13, 1248) 31200       block6b_expand_activation[0][0]  
__________________________________________________________________________________________________
block6b_bn (BatchNormalization) (None, 13, 13, 1248) 4992        block6b_dwconv[0][0]             
__________________________________________________________________________________________________
block6b_activation (Activation) (None, 13, 13, 1248) 0           block6b_bn[0][0]                 
__________________________________________________________________________________________________
block6b_se_squeeze (GlobalAvera (None, 1248)         0           block6b_activation[0][0]         
__________________________________________________________________________________________________
block6b_se_reshape (Reshape)    (None, 1, 1, 1248)   0           block6b_se_squeeze[0][0]         
__________________________________________________________________________________________________
block6b_se_reduce (Conv2D)      (None, 1, 1, 52)     64948       block6b_se_reshape[0][0]         
__________________________________________________________________________________________________
block6b_se_expand (Conv2D)      (None, 1, 1, 1248)   66144       block6b_se_reduce[0][0]          
__________________________________________________________________________________________________
block6b_se_excite (Multiply)    (None, 13, 13, 1248) 0           block6b_activation[0][0]         
                                                                 block6b_se_expand[0][0]          
__________________________________________________________________________________________________
block6b_project_conv (Conv2D)   (None, 13, 13, 208)  259584      block6b_se_excite[0][0]          
__________________________________________________________________________________________________
block6b_project_bn (BatchNormal (None, 13, 13, 208)  832         block6b_project_conv[0][0]       
__________________________________________________________________________________________________
block6b_drop (Dropout)          (None, 13, 13, 208)  0           block6b_project_bn[0][0]         
__________________________________________________________________________________________________
block6b_add (Add)               (None, 13, 13, 208)  0           block6b_drop[0][0]               
                                                                 block6a_project_bn[0][0]         
__________________________________________________________________________________________________
block6c_expand_conv (Conv2D)    (None, 13, 13, 1248) 259584      block6b_add[0][0]                
__________________________________________________________________________________________________
block6c_expand_bn (BatchNormali (None, 13, 13, 1248) 4992        block6c_expand_conv[0][0]        
__________________________________________________________________________________________________
block6c_expand_activation (Acti (None, 13, 13, 1248) 0           block6c_expand_bn[0][0]          
__________________________________________________________________________________________________
block6c_dwconv (DepthwiseConv2D (None, 13, 13, 1248) 31200       block6c_expand_activation[0][0]  
__________________________________________________________________________________________________
block6c_bn (BatchNormalization) (None, 13, 13, 1248) 4992        block6c_dwconv[0][0]             
__________________________________________________________________________________________________
block6c_activation (Activation) (None, 13, 13, 1248) 0           block6c_bn[0][0]                 
__________________________________________________________________________________________________
block6c_se_squeeze (GlobalAvera (None, 1248)         0           block6c_activation[0][0]         
__________________________________________________________________________________________________
block6c_se_reshape (Reshape)    (None, 1, 1, 1248)   0           block6c_se_squeeze[0][0]         
__________________________________________________________________________________________________
block6c_se_reduce (Conv2D)      (None, 1, 1, 52)     64948       block6c_se_reshape[0][0]         
__________________________________________________________________________________________________
block6c_se_expand (Conv2D)      (None, 1, 1, 1248)   66144       block6c_se_reduce[0][0]          
__________________________________________________________________________________________________
block6c_se_excite (Multiply)    (None, 13, 13, 1248) 0           block6c_activation[0][0]         
                                                                 block6c_se_expand[0][0]          
__________________________________________________________________________________________________
block6c_project_conv (Conv2D)   (None, 13, 13, 208)  259584      block6c_se_excite[0][0]          
__________________________________________________________________________________________________
block6c_project_bn (BatchNormal (None, 13, 13, 208)  832         block6c_project_conv[0][0]       
__________________________________________________________________________________________________
block6c_drop (Dropout)          (None, 13, 13, 208)  0           block6c_project_bn[0][0]         
__________________________________________________________________________________________________
block6c_add (Add)               (None, 13, 13, 208)  0           block6c_drop[0][0]               
                                                                 block6b_add[0][0]                
__________________________________________________________________________________________________
block6d_expand_conv (Conv2D)    (None, 13, 13, 1248) 259584      block6c_add[0][0]                
__________________________________________________________________________________________________
block6d_expand_bn (BatchNormali (None, 13, 13, 1248) 4992        block6d_expand_conv[0][0]        
__________________________________________________________________________________________________
block6d_expand_activation (Acti (None, 13, 13, 1248) 0           block6d_expand_bn[0][0]          
__________________________________________________________________________________________________
block6d_dwconv (DepthwiseConv2D (None, 13, 13, 1248) 31200       block6d_expand_activation[0][0]  
__________________________________________________________________________________________________
block6d_bn (BatchNormalization) (None, 13, 13, 1248) 4992        block6d_dwconv[0][0]             
__________________________________________________________________________________________________
block6d_activation (Activation) (None, 13, 13, 1248) 0           block6d_bn[0][0]                 
__________________________________________________________________________________________________
block6d_se_squeeze (GlobalAvera (None, 1248)         0           block6d_activation[0][0]         
__________________________________________________________________________________________________
block6d_se_reshape (Reshape)    (None, 1, 1, 1248)   0           block6d_se_squeeze[0][0]         
__________________________________________________________________________________________________
block6d_se_reduce (Conv2D)      (None, 1, 1, 52)     64948       block6d_se_reshape[0][0]         
__________________________________________________________________________________________________
block6d_se_expand (Conv2D)      (None, 1, 1, 1248)   66144       block6d_se_reduce[0][0]          
__________________________________________________________________________________________________
block6d_se_excite (Multiply)    (None, 13, 13, 1248) 0           block6d_activation[0][0]         
                                                                 block6d_se_expand[0][0]          
__________________________________________________________________________________________________
block6d_project_conv (Conv2D)   (None, 13, 13, 208)  259584      block6d_se_excite[0][0]          
__________________________________________________________________________________________________
block6d_project_bn (BatchNormal (None, 13, 13, 208)  832         block6d_project_conv[0][0]       
__________________________________________________________________________________________________
block6d_drop (Dropout)          (None, 13, 13, 208)  0           block6d_project_bn[0][0]         
__________________________________________________________________________________________________
block6d_add (Add)               (None, 13, 13, 208)  0           block6d_drop[0][0]               
                                                                 block6c_add[0][0]                
__________________________________________________________________________________________________
block6e_expand_conv (Conv2D)    (None, 13, 13, 1248) 259584      block6d_add[0][0]                
__________________________________________________________________________________________________
block6e_expand_bn (BatchNormali (None, 13, 13, 1248) 4992        block6e_expand_conv[0][0]        
__________________________________________________________________________________________________
block6e_expand_activation (Acti (None, 13, 13, 1248) 0           block6e_expand_bn[0][0]          
__________________________________________________________________________________________________
block6e_dwconv (DepthwiseConv2D (None, 13, 13, 1248) 31200       block6e_expand_activation[0][0]  
__________________________________________________________________________________________________
block6e_bn (BatchNormalization) (None, 13, 13, 1248) 4992        block6e_dwconv[0][0]             
__________________________________________________________________________________________________
block6e_activation (Activation) (None, 13, 13, 1248) 0           block6e_bn[0][0]                 
__________________________________________________________________________________________________
block6e_se_squeeze (GlobalAvera (None, 1248)         0           block6e_activation[0][0]         
__________________________________________________________________________________________________
block6e_se_reshape (Reshape)    (None, 1, 1, 1248)   0           block6e_se_squeeze[0][0]         
__________________________________________________________________________________________________
block6e_se_reduce (Conv2D)      (None, 1, 1, 52)     64948       block6e_se_reshape[0][0]         
__________________________________________________________________________________________________
block6e_se_expand (Conv2D)      (None, 1, 1, 1248)   66144       block6e_se_reduce[0][0]          
__________________________________________________________________________________________________
block6e_se_excite (Multiply)    (None, 13, 13, 1248) 0           block6e_activation[0][0]         
                                                                 block6e_se_expand[0][0]          
__________________________________________________________________________________________________
block6e_project_conv (Conv2D)   (None, 13, 13, 208)  259584      block6e_se_excite[0][0]          
__________________________________________________________________________________________________
block6e_project_bn (BatchNormal (None, 13, 13, 208)  832         block6e_project_conv[0][0]       
__________________________________________________________________________________________________
block6e_drop (Dropout)          (None, 13, 13, 208)  0           block6e_project_bn[0][0]         
__________________________________________________________________________________________________
block6e_add (Add)               (None, 13, 13, 208)  0           block6e_drop[0][0]               
                                                                 block6d_add[0][0]                
__________________________________________________________________________________________________
block7a_expand_conv (Conv2D)    (None, 13, 13, 1248) 259584      block6e_add[0][0]                
__________________________________________________________________________________________________
block7a_expand_bn (BatchNormali (None, 13, 13, 1248) 4992        block7a_expand_conv[0][0]        
__________________________________________________________________________________________________
block7a_expand_activation (Acti (None, 13, 13, 1248) 0           block7a_expand_bn[0][0]          
__________________________________________________________________________________________________
block7a_dwconv (DepthwiseConv2D (None, 13, 13, 1248) 11232       block7a_expand_activation[0][0]  
__________________________________________________________________________________________________
block7a_bn (BatchNormalization) (None, 13, 13, 1248) 4992        block7a_dwconv[0][0]             
__________________________________________________________________________________________________
block7a_activation (Activation) (None, 13, 13, 1248) 0           block7a_bn[0][0]                 
__________________________________________________________________________________________________
block7a_se_squeeze (GlobalAvera (None, 1248)         0           block7a_activation[0][0]         
__________________________________________________________________________________________________
block7a_se_reshape (Reshape)    (None, 1, 1, 1248)   0           block7a_se_squeeze[0][0]         
__________________________________________________________________________________________________
block7a_se_reduce (Conv2D)      (None, 1, 1, 52)     64948       block7a_se_reshape[0][0]         
__________________________________________________________________________________________________
block7a_se_expand (Conv2D)      (None, 1, 1, 1248)   66144       block7a_se_reduce[0][0]          
__________________________________________________________________________________________________
block7a_se_excite (Multiply)    (None, 13, 13, 1248) 0           block7a_activation[0][0]         
                                                                 block7a_se_expand[0][0]          
__________________________________________________________________________________________________
block7a_project_conv (Conv2D)   (None, 13, 13, 352)  439296      block7a_se_excite[0][0]          
__________________________________________________________________________________________________
block7a_project_bn (BatchNormal (None, 13, 13, 352)  1408        block7a_project_conv[0][0]       
__________________________________________________________________________________________________
block7b_expand_conv (Conv2D)    (None, 13, 13, 2112) 743424      block7a_project_bn[0][0]         
__________________________________________________________________________________________________
block7b_expand_bn (BatchNormali (None, 13, 13, 2112) 8448        block7b_expand_conv[0][0]        
__________________________________________________________________________________________________
block7b_expand_activation (Acti (None, 13, 13, 2112) 0           block7b_expand_bn[0][0]          
__________________________________________________________________________________________________
block7b_dwconv (DepthwiseConv2D (None, 13, 13, 2112) 19008       block7b_expand_activation[0][0]  
__________________________________________________________________________________________________
block7b_bn (BatchNormalization) (None, 13, 13, 2112) 8448        block7b_dwconv[0][0]             
__________________________________________________________________________________________________
block7b_activation (Activation) (None, 13, 13, 2112) 0           block7b_bn[0][0]                 
__________________________________________________________________________________________________
block7b_se_squeeze (GlobalAvera (None, 2112)         0           block7b_activation[0][0]         
__________________________________________________________________________________________________
block7b_se_reshape (Reshape)    (None, 1, 1, 2112)   0           block7b_se_squeeze[0][0]         
__________________________________________________________________________________________________
block7b_se_reduce (Conv2D)      (None, 1, 1, 88)     185944      block7b_se_reshape[0][0]         
__________________________________________________________________________________________________
block7b_se_expand (Conv2D)      (None, 1, 1, 2112)   187968      block7b_se_reduce[0][0]          
__________________________________________________________________________________________________
block7b_se_excite (Multiply)    (None, 13, 13, 2112) 0           block7b_activation[0][0]         
                                                                 block7b_se_expand[0][0]          
__________________________________________________________________________________________________
block7b_project_conv (Conv2D)   (None, 13, 13, 352)  743424      block7b_se_excite[0][0]          
__________________________________________________________________________________________________
block7b_project_bn (BatchNormal (None, 13, 13, 352)  1408        block7b_project_conv[0][0]       
__________________________________________________________________________________________________
block7b_drop (Dropout)          (None, 13, 13, 352)  0           block7b_project_bn[0][0]         
__________________________________________________________________________________________________
block7b_add (Add)               (None, 13, 13, 352)  0           block7b_drop[0][0]               
                                                                 block7a_project_bn[0][0]         
__________________________________________________________________________________________________
conv2d (Conv2D)                 (None, 13, 13, 352)  123904      block7b_add[0][0]                
__________________________________________________________________________________________________
batch_normalization (BatchNorma (None, 13, 13, 352)  1408        conv2d[0][0]                     
__________________________________________________________________________________________________
leaky_re_lu (LeakyReLU)         (None, 13, 13, 352)  0           batch_normalization[0][0]        
__________________________________________________________________________________________________
conv2d_1 (Conv2D)               (None, 13, 13, 704)  2230272     leaky_re_lu[0][0]                
__________________________________________________________________________________________________
batch_normalization_1 (BatchNor (None, 13, 13, 704)  2816        conv2d_1[0][0]                   
__________________________________________________________________________________________________
leaky_re_lu_1 (LeakyReLU)       (None, 13, 13, 704)  0           batch_normalization_1[0][0]      
__________________________________________________________________________________________________
conv2d_2 (Conv2D)               (None, 13, 13, 352)  247808      leaky_re_lu_1[0][0]              
__________________________________________________________________________________________________
batch_normalization_2 (BatchNor (None, 13, 13, 352)  1408        conv2d_2[0][0]                   
__________________________________________________________________________________________________
leaky_re_lu_2 (LeakyReLU)       (None, 13, 13, 352)  0           batch_normalization_2[0][0]      
__________________________________________________________________________________________________
conv2d_3 (Conv2D)               (None, 13, 13, 704)  2230272     leaky_re_lu_2[0][0]              
__________________________________________________________________________________________________
batch_normalization_3 (BatchNor (None, 13, 13, 704)  2816        conv2d_3[0][0]                   
__________________________________________________________________________________________________
leaky_re_lu_3 (LeakyReLU)       (None, 13, 13, 704)  0           batch_normalization_3[0][0]      
__________________________________________________________________________________________________
conv2d_4 (Conv2D)               (None, 13, 13, 352)  247808      leaky_re_lu_3[0][0]              
__________________________________________________________________________________________________
batch_normalization_4 (BatchNor (None, 13, 13, 352)  1408        conv2d_4[0][0]                   
__________________________________________________________________________________________________
leaky_re_lu_4 (LeakyReLU)       (None, 13, 13, 352)  0           batch_normalization_4[0][0]      
__________________________________________________________________________________________________
conv2d_7 (Conv2D)               (None, 13, 13, 120)  42240       leaky_re_lu_4[0][0]              
__________________________________________________________________________________________________
batch_normalization_6 (BatchNor (None, 13, 13, 120)  480         conv2d_7[0][0]                   
__________________________________________________________________________________________________
leaky_re_lu_6 (LeakyReLU)       (None, 13, 13, 120)  0           batch_normalization_6[0][0]      
__________________________________________________________________________________________________
up_sampling2d (UpSampling2D)    (None, 26, 26, 120)  0           leaky_re_lu_6[0][0]              
__________________________________________________________________________________________________
concatenate (Concatenate)       (None, 26, 26, 240)  0           up_sampling2d[0][0]              
                                                                 block5d_add[0][0]                
__________________________________________________________________________________________________
conv2d_8 (Conv2D)               (None, 26, 26, 120)  28800       concatenate[0][0]                
__________________________________________________________________________________________________
batch_normalization_7 (BatchNor (None, 26, 26, 120)  480         conv2d_8[0][0]                   
__________________________________________________________________________________________________
leaky_re_lu_7 (LeakyReLU)       (None, 26, 26, 120)  0           batch_normalization_7[0][0]      
__________________________________________________________________________________________________
conv2d_9 (Conv2D)               (None, 26, 26, 240)  259200      leaky_re_lu_7[0][0]              
__________________________________________________________________________________________________
batch_normalization_8 (BatchNor (None, 26, 26, 240)  960         conv2d_9[0][0]                   
__________________________________________________________________________________________________
leaky_re_lu_8 (LeakyReLU)       (None, 26, 26, 240)  0           batch_normalization_8[0][0]      
__________________________________________________________________________________________________
conv2d_10 (Conv2D)              (None, 26, 26, 120)  28800       leaky_re_lu_8[0][0]              
__________________________________________________________________________________________________
batch_normalization_9 (BatchNor (None, 26, 26, 120)  480         conv2d_10[0][0]                  
__________________________________________________________________________________________________
leaky_re_lu_9 (LeakyReLU)       (None, 26, 26, 120)  0           batch_normalization_9[0][0]      
__________________________________________________________________________________________________
conv2d_11 (Conv2D)              (None, 26, 26, 240)  259200      leaky_re_lu_9[0][0]              
__________________________________________________________________________________________________
batch_normalization_10 (BatchNo (None, 26, 26, 240)  960         conv2d_11[0][0]                  
__________________________________________________________________________________________________
leaky_re_lu_10 (LeakyReLU)      (None, 26, 26, 240)  0           batch_normalization_10[0][0]     
__________________________________________________________________________________________________
conv2d_12 (Conv2D)              (None, 26, 26, 120)  28800       leaky_re_lu_10[0][0]             
__________________________________________________________________________________________________
batch_normalization_11 (BatchNo (None, 26, 26, 120)  480         conv2d_12[0][0]                  
__________________________________________________________________________________________________
leaky_re_lu_11 (LeakyReLU)      (None, 26, 26, 120)  0           batch_normalization_11[0][0]     
__________________________________________________________________________________________________
conv2d_15 (Conv2D)              (None, 26, 26, 48)   5760        leaky_re_lu_11[0][0]             
__________________________________________________________________________________________________
batch_normalization_13 (BatchNo (None, 26, 26, 48)   192         conv2d_15[0][0]                  
__________________________________________________________________________________________________
leaky_re_lu_13 (LeakyReLU)      (None, 26, 26, 48)   0           batch_normalization_13[0][0]     
__________________________________________________________________________________________________
up_sampling2d_1 (UpSampling2D)  (None, 52, 52, 48)   0           leaky_re_lu_13[0][0]             
__________________________________________________________________________________________________
concatenate_1 (Concatenate)     (None, 52, 52, 96)   0           up_sampling2d_1[0][0]            
                                                                 block3c_add[0][0]                
__________________________________________________________________________________________________
conv2d_16 (Conv2D)              (None, 52, 52, 48)   4608        concatenate_1[0][0]              
__________________________________________________________________________________________________
batch_normalization_14 (BatchNo (None, 52, 52, 48)   192         conv2d_16[0][0]                  
__________________________________________________________________________________________________
leaky_re_lu_14 (LeakyReLU)      (None, 52, 52, 48)   0           batch_normalization_14[0][0]     
__________________________________________________________________________________________________
conv2d_17 (Conv2D)              (None, 52, 52, 96)   41472       leaky_re_lu_14[0][0]             
__________________________________________________________________________________________________
batch_normalization_15 (BatchNo (None, 52, 52, 96)   384         conv2d_17[0][0]                  
__________________________________________________________________________________________________
leaky_re_lu_15 (LeakyReLU)      (None, 52, 52, 96)   0           batch_normalization_15[0][0]     
__________________________________________________________________________________________________
conv2d_18 (Conv2D)              (None, 52, 52, 48)   4608        leaky_re_lu_15[0][0]             
__________________________________________________________________________________________________
batch_normalization_16 (BatchNo (None, 52, 52, 48)   192         conv2d_18[0][0]                  
__________________________________________________________________________________________________
leaky_re_lu_16 (LeakyReLU)      (None, 52, 52, 48)   0           batch_normalization_16[0][0]     
__________________________________________________________________________________________________
conv2d_19 (Conv2D)              (None, 52, 52, 96)   41472       leaky_re_lu_16[0][0]             
__________________________________________________________________________________________________
batch_normalization_17 (BatchNo (None, 52, 52, 96)   384         conv2d_19[0][0]                  
__________________________________________________________________________________________________
leaky_re_lu_17 (LeakyReLU)      (None, 52, 52, 96)   0           batch_normalization_17[0][0]     
__________________________________________________________________________________________________
conv2d_20 (Conv2D)              (None, 52, 52, 48)   4608        leaky_re_lu_17[0][0]             
__________________________________________________________________________________________________
batch_normalization_18 (BatchNo (None, 52, 52, 48)   192         conv2d_20[0][0]                  
__________________________________________________________________________________________________
leaky_re_lu_18 (LeakyReLU)      (None, 52, 52, 48)   0           batch_normalization_18[0][0]     
__________________________________________________________________________________________________
conv2d_5 (Conv2D)               (None, 13, 13, 704)  2230272     leaky_re_lu_4[0][0]              
__________________________________________________________________________________________________
conv2d_13 (Conv2D)              (None, 26, 26, 240)  259200      leaky_re_lu_11[0][0]             
__________________________________________________________________________________________________
conv2d_21 (Conv2D)              (None, 52, 52, 96)   41472       leaky_re_lu_18[0][0]             
__________________________________________________________________________________________________
batch_normalization_5 (BatchNor (None, 13, 13, 704)  2816        conv2d_5[0][0]                   
__________________________________________________________________________________________________
batch_normalization_12 (BatchNo (None, 26, 26, 240)  960         conv2d_13[0][0]                  
__________________________________________________________________________________________________
batch_normalization_19 (BatchNo (None, 52, 52, 96)   384         conv2d_21[0][0]                  
__________________________________________________________________________________________________
leaky_re_lu_5 (LeakyReLU)       (None, 13, 13, 704)  0           batch_normalization_5[0][0]      
__________________________________________________________________________________________________
leaky_re_lu_12 (LeakyReLU)      (None, 26, 26, 240)  0           batch_normalization_12[0][0]     
__________________________________________________________________________________________________
leaky_re_lu_19 (LeakyReLU)      (None, 52, 52, 96)   0           batch_normalization_19[0][0]     
__________________________________________________________________________________________________
conv2d_6 (Conv2D)               (None, 13, 13, 21)   14805       leaky_re_lu_5[0][0]              
__________________________________________________________________________________________________
conv2d_14 (Conv2D)              (None, 26, 26, 21)   5061        leaky_re_lu_12[0][0]             
__________________________________________________________________________________________________
conv2d_22 (Conv2D)              (None, 52, 52, 21)   2037        leaky_re_lu_19[0][0]             
==================================================================================================
Total params: 15,669,185
Trainable params: 15,594,737
Non-trainable params: 74,448
__________________________________________________________________________________________________
Total GFLOPs: 8.968G
