…
                                6)                                'tf.__operators__.add_6[0][0]']

 tf.math.abs_9 (TFOpLambda)     (None, 150, 150, 25  0           ['add_2[0][0]']
                                6)

 tf.math.multiply_18 (TFOpLambd  (None, 150, 150, 25  0          ['add_2[0][0]']
 a)                             6)

 tf.math.multiply_19 (TFOpLambd  (None, 150, 150, 25  0          ['tf.math.abs_9[0][0]']
 a)                             6)

 tf.__operators__.add_9 (TFOpLa  (None, 150, 150, 25  0          ['tf.math.multiply_18[0][0]',
 mbda)                          6)                                'tf.math.multiply_19[0][0]']

 res3a_branch2a (Conv2D)        (None, 75, 75, 128)  32896       ['tf.__operators__.add_9[0][0]']

 bn3a_branch2a (BatchNormalizat  (None, 75, 75, 128)  512        ['res3a_branch2a[0][0]']
 ion)

 tf.math.abs_10 (TFOpLambda)    (None, 75, 75, 128)  0           ['bn3a_branch2a[0][0]']

 tf.math.multiply_20 (TFOpLambd  (None, 75, 75, 128)  0          ['bn3a_branch2a[0][0]']
 a)

 tf.math.multiply_21 (TFOpLambd  (None, 75, 75, 128)  0          ['tf.math.abs_10[0][0]']
 a)

 tf.__operators__.add_10 (TFOpL  (None, 75, 75, 128)  0          ['tf.math.multiply_20[0][0]',
 ambda)                                                           'tf.math.multiply_21[0][0]']

 res3a_branch2b (Conv2D)        (None, 75, 75, 128)  147584      ['tf.__operators__.add_10[0][0]']

 bn3a_branch2b (BatchNormalizat  (None, 75, 75, 128)  512        ['res3a_branch2b[0][0]']
 ion)

 tf.math.abs_11 (TFOpLambda)    (None, 75, 75, 128)  0           ['bn3a_branch2b[0][0]']

 tf.math.multiply_22 (TFOpLambd  (None, 75, 75, 128)  0          ['bn3a_branch2b[0][0]']
 a)

 tf.math.multiply_23 (TFOpLambd  (None, 75, 75, 128)  0          ['tf.math.abs_11[0][0]']
 a)

 tf.__operators__.add_11 (TFOpL  (None, 75, 75, 128)  0          ['tf.math.multiply_22[0][0]',
 ambda)                                                           'tf.math.multiply_23[0][0]']    

 res3a_branch2c (Conv2D)        (None, 75, 75, 512)  66048       ['tf.__operators__.add_11[0][0]']

 res3a_branch1 (Conv2D)         (None, 75, 75, 512)  131584      ['tf.__operators__.add_9[0][0]']

 bn3a_branch2c (BatchNormalizat  (None, 75, 75, 512)  2048       ['res3a_branch2c[0][0]']
 ion)

 bn3a_branch1 (BatchNormalizati  (None, 75, 75, 512)  2048       ['res3a_branch1[0][0]']
 on)

 add_3 (Add)                    (None, 75, 75, 512)  0           ['bn3a_branch2c[0][0]',
                                                                  'bn3a_branch1[0][0]']

 tf.math.abs_12 (TFOpLambda)    (None, 75, 75, 512)  0           ['add_3[0][0]']

 tf.math.multiply_24 (TFOpLambd  (None, 75, 75, 512)  0          ['add_3[0][0]']
 a)

 tf.math.multiply_25 (TFOpLambd  (None, 75, 75, 512)  0          ['tf.math.abs_12[0][0]']
 a)

 tf.__operators__.add_12 (TFOpL  (None, 75, 75, 512)  0          ['tf.math.multiply_24[0][0]',
 ambda)                                                           'tf.math.multiply_25[0][0]']

 res3b_branch2a (Conv2D)        (None, 75, 75, 128)  65664       ['tf.__operators__.add_12[0][0]']

 bn3b_branch2a (BatchNormalizat  (None, 75, 75, 128)  512        ['res3b_branch2a[0][0]']
 ion)

 tf.math.abs_13 (TFOpLambda)    (None, 75, 75, 128)  0           ['bn3b_branch2a[0][0]']

 tf.math.multiply_26 (TFOpLambd  (None, 75, 75, 128)  0          ['bn3b_branch2a[0][0]']
 a)

 tf.math.multiply_27 (TFOpLambd  (None, 75, 75, 128)  0          ['tf.math.abs_13[0][0]']
 a)

 tf.__operators__.add_13 (TFOpL  (None, 75, 75, 128)  0          ['tf.math.multiply_26[0][0]',    
 ambda)                                                           'tf.math.multiply_27[0][0]']

 res3b_branch2b (Conv2D)        (None, 75, 75, 128)  147584      ['tf.__operators__.add_13[0][0]']

 bn3b_branch2b (BatchNormalizat  (None, 75, 75, 128)  512        ['res3b_branch2b[0][0]']
 ion)

 tf.math.abs_14 (TFOpLambda)    (None, 75, 75, 128)  0           ['bn3b_branch2b[0][0]']

 tf.math.multiply_28 (TFOpLambd  (None, 75, 75, 128)  0          ['bn3b_branch2b[0][0]']
 a)

 tf.math.multiply_29 (TFOpLambd  (None, 75, 75, 128)  0          ['tf.math.abs_14[0][0]']
 a)

 tf.__operators__.add_14 (TFOpL  (None, 75, 75, 128)  0          ['tf.math.multiply_28[0][0]',
 ambda)                                                           'tf.math.multiply_29[0][0]']

 res3b_branch2c (Conv2D)        (None, 75, 75, 512)  66048       ['tf.__operators__.add_14[0][0]']

 bn3b_branch2c (BatchNormalizat  (None, 75, 75, 512)  2048       ['res3b_branch2c[0][0]']
 ion)

 add_4 (Add)                    (None, 75, 75, 512)  0           ['bn3b_branch2c[0][0]',
                                                                  'tf.__operators__.add_12[0][0]']

 tf.math.abs_15 (TFOpLambda)    (None, 75, 75, 512)  0           ['add_4[0][0]']

 tf.math.multiply_30 (TFOpLambd  (None, 75, 75, 512)  0          ['add_4[0][0]']
 a)

 tf.math.multiply_31 (TFOpLambd  (None, 75, 75, 512)  0          ['tf.math.abs_15[0][0]']
 a)

 tf.__operators__.add_15 (TFOpL  (None, 75, 75, 512)  0          ['tf.math.multiply_30[0][0]',
 ambda)                                                           'tf.math.multiply_31[0][0]']

 res3c_branch2a (Conv2D)        (None, 75, 75, 128)  65664       ['tf.__operators__.add_15[0][0]']

 bn3c_branch2a (BatchNormalizat  (None, 75, 75, 128)  512        ['res3c_branch2a[0][0]']
 ion)

 tf.math.abs_16 (TFOpLambda)    (None, 75, 75, 128)  0           ['bn3c_branch2a[0][0]']

 tf.math.multiply_32 (TFOpLambd  (None, 75, 75, 128)  0          ['bn3c_branch2a[0][0]']
 a)

 tf.math.multiply_33 (TFOpLambd  (None, 75, 75, 128)  0          ['tf.math.abs_16[0][0]']
 a)

 tf.__operators__.add_16 (TFOpL  (None, 75, 75, 128)  0          ['tf.math.multiply_32[0][0]',
 ambda)                                                           'tf.math.multiply_33[0][0]']

 res3c_branch2b (Conv2D)        (None, 75, 75, 128)  147584      ['tf.__operators__.add_16[0][0]']

 bn3c_branch2b (BatchNormalizat  (None, 75, 75, 128)  512        ['res3c_branch2b[0][0]']
 ion)

 tf.math.abs_17 (TFOpLambda)    (None, 75, 75, 128)  0           ['bn3c_branch2b[0][0]']

 tf.math.multiply_34 (TFOpLambd  (None, 75, 75, 128)  0          ['bn3c_branch2b[0][0]']
 a)

 tf.math.multiply_35 (TFOpLambd  (None, 75, 75, 128)  0          ['tf.math.abs_17[0][0]']
 a)

 tf.__operators__.add_17 (TFOpL  (None, 75, 75, 128)  0          ['tf.math.multiply_34[0][0]',
 ambda)                                                           'tf.math.multiply_35[0][0]']

 res3c_branch2c (Conv2D)        (None, 75, 75, 512)  66048       ['tf.__operators__.add_17[0][0]']

 bn3c_branch2c (BatchNormalizat  (None, 75, 75, 512)  2048       ['res3c_branch2c[0][0]']
 ion)

 add_5 (Add)                    (None, 75, 75, 512)  0           ['bn3c_branch2c[0][0]',
                                                                  'tf.__operators__.add_15[0][0]']

 tf.math.abs_18 (TFOpLambda)    (None, 75, 75, 512)  0           ['add_5[0][0]']

 tf.math.multiply_36 (TFOpLambd  (None, 75, 75, 512)  0          ['add_5[0][0]']
 a)

 tf.math.multiply_37 (TFOpLambd  (None, 75, 75, 512)  0          ['tf.math.abs_18[0][0]']
 a)

 tf.__operators__.add_18 (TFOpL  (None, 75, 75, 512)  0          ['tf.math.multiply_36[0][0]',
 ambda)                                                           'tf.math.multiply_37[0][0]']

 res3d_branch2a (Conv2D)        (None, 75, 75, 128)  65664       ['tf.__operators__.add_18[0][0]']

 bn3d_branch2a (BatchNormalizat  (None, 75, 75, 128)  512        ['res3d_branch2a[0][0]']
 ion)

 tf.math.abs_19 (TFOpLambda)    (None, 75, 75, 128)  0           ['bn3d_branch2a[0][0]']

 tf.math.multiply_38 (TFOpLambd  (None, 75, 75, 128)  0          ['bn3d_branch2a[0][0]']
 a)

 tf.math.multiply_39 (TFOpLambd  (None, 75, 75, 128)  0          ['tf.math.abs_19[0][0]']
 a)

 tf.__operators__.add_19 (TFOpL  (None, 75, 75, 128)  0          ['tf.math.multiply_38[0][0]',
 ambda)                                                           'tf.math.multiply_39[0][0]']

 res3d_branch2b (Conv2D)        (None, 75, 75, 128)  147584      ['tf.__operators__.add_19[0][0]']

 bn3d_branch2b (BatchNormalizat  (None, 75, 75, 128)  512        ['res3d_branch2b[0][0]']
 ion)

 tf.math.abs_20 (TFOpLambda)    (None, 75, 75, 128)  0           ['bn3d_branch2b[0][0]']

 tf.math.multiply_40 (TFOpLambd  (None, 75, 75, 128)  0          ['bn3d_branch2b[0][0]']
 a)

 tf.math.multiply_41 (TFOpLambd  (None, 75, 75, 128)  0          ['tf.math.abs_20[0][0]']
 a)

 tf.__operators__.add_20 (TFOpL  (None, 75, 75, 128)  0          ['tf.math.multiply_40[0][0]',
 ambda)                                                           'tf.math.multiply_41[0][0]']

 res3d_branch2c (Conv2D)        (None, 75, 75, 512)  66048       ['tf.__operators__.add_20[0][0]']

 bn3d_branch2c (BatchNormalizat  (None, 75, 75, 512)  2048       ['res3d_branch2c[0][0]']
 ion)

 add_6 (Add)                    (None, 75, 75, 512)  0           ['bn3d_branch2c[0][0]',
                                                                  'tf.__operators__.add_18[0][0]']

 tf.math.abs_21 (TFOpLambda)    (None, 75, 75, 512)  0           ['add_6[0][0]']

 tf.math.multiply_42 (TFOpLambd  (None, 75, 75, 512)  0          ['add_6[0][0]']
 a)

 tf.math.multiply_43 (TFOpLambd  (None, 75, 75, 512)  0          ['tf.math.abs_21[0][0]']
 a)

 tf.__operators__.add_21 (TFOpL  (None, 75, 75, 512)  0          ['tf.math.multiply_42[0][0]',    
 ambda)                                                           'tf.math.multiply_43[0][0]']

 res4a_branch2a (Conv2D)        (None, 38, 38, 256)  131328      ['tf.__operators__.add_21[0][0]']

 bn4a_branch2a (BatchNormalizat  (None, 38, 38, 256)  1024       ['res4a_branch2a[0][0]']
 ion)

 tf.math.abs_22 (TFOpLambda)    (None, 38, 38, 256)  0           ['bn4a_branch2a[0][0]']

 tf.math.multiply_44 (TFOpLambd  (None, 38, 38, 256)  0          ['bn4a_branch2a[0][0]']
 a)

 tf.math.multiply_45 (TFOpLambd  (None, 38, 38, 256)  0          ['tf.math.abs_22[0][0]']
 a)

 tf.__operators__.add_22 (TFOpL  (None, 38, 38, 256)  0          ['tf.math.multiply_44[0][0]',
 ambda)                                                           'tf.math.multiply_45[0][0]']    

 res4a_branch2b (Conv2D)        (None, 38, 38, 256)  590080      ['tf.__operators__.add_22[0][0]']

 bn4a_branch2b (BatchNormalizat  (None, 38, 38, 256)  1024       ['res4a_branch2b[0][0]']
 ion)

 tf.math.abs_23 (TFOpLambda)    (None, 38, 38, 256)  0           ['bn4a_branch2b[0][0]']

 tf.math.multiply_46 (TFOpLambd  (None, 38, 38, 256)  0          ['bn4a_branch2b[0][0]']
 a)

 tf.math.multiply_47 (TFOpLambd  (None, 38, 38, 256)  0          ['tf.math.abs_23[0][0]']
 a)

 tf.__operators__.add_23 (TFOpL  (None, 38, 38, 256)  0          ['tf.math.multiply_46[0][0]',
 ambda)                                                           'tf.math.multiply_47[0][0]']

 res4a_branch2c (Conv2D)        (None, 38, 38, 1024  263168      ['tf.__operators__.add_23[0][0]']
                                )

 res4a_branch1 (Conv2D)         (None, 38, 38, 1024  525312      ['tf.__operators__.add_21[0][0]']
                                )
…
                                )                                 'bn4a_branch1[0][0]']

 tf.math.abs_24 (TFOpLambda)    (None, 38, 38, 1024  0           ['add_7[0][0]']
                                )

 tf.math.multiply_48 (TFOpLambd  (None, 38, 38, 1024  0          ['add_7[0][0]']
 a)                             )

 tf.math.multiply_49 (TFOpLambd  (None, 38, 38, 1024  0          ['tf.math.abs_24[0][0]']
 a)                             )

 tf.__operators__.add_24 (TFOpL  (None, 38, 38, 1024  0          ['tf.math.multiply_48[0][0]',    
 ambda)                         )                                 'tf.math.multiply_49[0][0]']

 res4b_branch2a (Conv2D)        (None, 38, 38, 256)  262400      ['tf.__operators__.add_24[0][0]']

 bn4b_branch2a (BatchNormalizat  (None, 38, 38, 256)  1024       ['res4b_branch2a[0][0]']
 ion)

 tf.math.abs_25 (TFOpLambda)    (None, 38, 38, 256)  0           ['bn4b_branch2a[0][0]']

 tf.math.multiply_50 (TFOpLambd  (None, 38, 38, 256)  0          ['bn4b_branch2a[0][0]']
 a)

 tf.math.multiply_51 (TFOpLambd  (None, 38, 38, 256)  0          ['tf.math.abs_25[0][0]']
 a)

 tf.__operators__.add_25 (TFOpL  (None, 38, 38, 256)  0          ['tf.math.multiply_50[0][0]',
 ambda)                                                           'tf.math.multiply_51[0][0]']

 res4b_branch2b (Conv2D)        (None, 38, 38, 256)  590080      ['tf.__operators__.add_25[0][0]']

 bn4b_branch2b (BatchNormalizat  (None, 38, 38, 256)  1024       ['res4b_branch2b[0][0]']
 ion)

 tf.math.abs_26 (TFOpLambda)    (None, 38, 38, 256)  0           ['bn4b_branch2b[0][0]']

 tf.math.multiply_52 (TFOpLambd  (None, 38, 38, 256)  0          ['bn4b_branch2b[0][0]']
 a)

 tf.math.multiply_53 (TFOpLambd  (None, 38, 38, 256)  0          ['tf.math.abs_26[0][0]']
 a)

 tf.__operators__.add_26 (TFOpL  (None, 38, 38, 256)  0          ['tf.math.multiply_52[0][0]',
 ambda)                                                           'tf.math.multiply_53[0][0]']

 res4b_branch2c (Conv2D)        (None, 38, 38, 1024  263168      ['tf.__operators__.add_26[0][0]']
                                )

 bn4b_branch2c (BatchNormalizat  (None, 38, 38, 1024  4096       ['res4b_branch2c[0][0]']
 ion)                           )

 add_8 (Add)                    (None, 38, 38, 1024  0           ['bn4b_branch2c[0][0]',
…
                                )                                 'tf.__operators__.add_36[0][0]']

 tf.math.abs_39 (TFOpLambda)    (None, 38, 38, 1024  0           ['add_12[0][0]']
                                )

 tf.math.multiply_78 (TFOpLambd  (None, 38, 38, 1024  0          ['add_12[0][0]']
 a)                             )

 tf.math.multiply_79 (TFOpLambd  (None, 38, 38, 1024  0          ['tf.math.abs_39[0][0]']
 a)                             )

 tf.__operators__.add_39 (TFOpL  (None, 38, 38, 1024  0          ['tf.math.multiply_78[0][0]',
 ambda)                         )                                 'tf.math.multiply_79[0][0]']

 global_average_pooling2d (Glob  (None, 1024)        0           ['tf.__operators__.add_39[0][0]']
 alAveragePooling2D)

 dense (Dense)                  (None, 256)          262400      ['global_average_pooling2d[0][0]'
                                                                 ]

 activation (Activation)        (None, 256)          0           ['dense[0][0]']

 dense_1 (Dense)                (None, 1024)         263168      ['activation[0][0]']

 activation_1 (Activation)      (None, 1024)         0           ['dense_1[0][0]']

 reshape (Reshape)              (None, 1, 1, 1024)   0           ['activation_1[0][0]']

 multiply (Multiply)            (None, 38, 38, 1024  0           ['tf.__operators__.add_39[0][0]',
                                )                                 'reshape[0][0]']

 input_2 (InputLayer)           [(None, None, 4)]    0           []

 roi_pooling_conv (RoiPoolingCo  (None, None, 14, 14  0          ['multiply[0][0]',
 nv)                            , 1024)                           'input_2[0][0]']
…
                                2048)                             'tf.__operators__.add_45[0][0]']

 tf.math.abs_48 (TFOpLambda)    (None, None, 7, 7,   0           ['add_15[0][0]']
                                2048)

 tf.math.multiply_96 (TFOpLambd  (None, None, 7, 7,   0          ['add_15[0][0]']
 a)                             2048)

 tf.math.multiply_97 (TFOpLambd  (None, None, 7, 7,   0          ['tf.math.abs_48[0][0]']
 a)                             2048)

 tf.__operators__.add_48 (TFOpL  (None, None, 7, 7,   0          ['tf.math.multiply_96[0][0]',
 ambda)                         2048)                             'tf.math.multiply_97[0][0]']

 rpn_conv1 (Conv2D)             (None, 38, 38, 512)  4719104     ['multiply[0][0]']

 avg_pool (TimeDistributed)     (None, None, 1, 1,   0           ['tf.__operators__.add_48[0][0]']
                                2048)

 rpn_out_class (Conv2D)         (None, 38, 38, 9)    4617        ['rpn_conv1[0][0]']

 rpn_out_regress (Conv2D)       (None, 38, 38, 36)   18468       ['rpn_conv1[0][0]']

 time_distributed (TimeDistribu  (None, None, 2048)  0           ['avg_pool[0][0]']
 ted)

 classification (Reshape)       (None, 12996, 1)     0           ['rpn_out_class[0][0]']

 regression (Reshape)           (None, 12996, 4)     0           ['rpn_out_regress[0][0]']

 dense_class_3 (TimeDistributed  (None, None, 3)     6147        ['time_distributed[0][0]']
 )

 dense_regress_3 (TimeDistribut  (None, None, 8)     16392       ['time_distributed[0][0]']
 ed)

==================================================================================================
Total params: 28,878,008
Trainable params: 28,771,768
Non-trainable params: 106,240
…
